…
│ (BatchNormalizatio… │ 192)              │            │                   │
├─────────────────────┼───────────────────┼────────────┼───────────────────┤
│ activation_70       │ (None, 17, 17,    │          0 │ batch_normalizat… │
│ (Activation)        │ 192)              │            │                   │
├─────────────────────┼───────────────────┼────────────┼───────────────────┤
│ activation_74       │ (None, 17, 17,    │          0 │ batch_normalizat… │
│ (Activation)        │ 192)              │            │                   │
├─────────────────────┼───────────────────┼────────────┼───────────────────┤
│ conv2d_71 (Conv2D)  │ (None, 8, 8, 320) │    552,960 │ activation_70[0]… │
├─────────────────────┼───────────────────┼────────────┼───────────────────┤
│ conv2d_75 (Conv2D)  │ (None, 8, 8, 192) │    331,776 │ activation_74[0]… │
├─────────────────────┼───────────────────┼────────────┼───────────────────┤
│ batch_normalizatio… │ (None, 8, 8, 320) │        960 │ conv2d_71[0][0]   │
│ (BatchNormalizatio… │                   │            │                   │
├─────────────────────┼───────────────────┼────────────┼───────────────────┤
│ batch_normalizatio… │ (None, 8, 8, 192) │        576 │ conv2d_75[0][0]   │
│ (BatchNormalizatio… │                   │            │                   │
├─────────────────────┼───────────────────┼────────────┼───────────────────┤
│ activation_71       │ (None, 8, 8, 320) │          0 │ batch_normalizat… │
│ (Activation)        │                   │            │                   │
├─────────────────────┼───────────────────┼────────────┼───────────────────┤
│ activation_75       │ (None, 8, 8, 192) │          0 │ batch_normalizat… │
│ (Activation)        │                   │            │                   │
├─────────────────────┼───────────────────┼────────────┼───────────────────┤
│ max_pooling2d_3     │ (None, 8, 8, 768) │          0 │ mixed7[0][0]      │
│ (MaxPooling2D)      │                   │            │                   │
├─────────────────────┼───────────────────┼────────────┼───────────────────┤
│ mixed8              │ (None, 8, 8,      │          0 │ activation_71[0]… │
│ (Concatenate)       │ 1280)             │            │ activation_75[0]… │
│                     │                   │            │ max_pooling2d_3[… │
├─────────────────────┼───────────────────┼────────────┼───────────────────┤
│ conv2d_80 (Conv2D)  │ (None, 8, 8, 448) │    573,440 │ mixed8[0][0]      │
├─────────────────────┼───────────────────┼────────────┼───────────────────┤
│ batch_normalizatio… │ (None, 8, 8, 448) │      1,344 │ conv2d_80[0][0]   │
│ (BatchNormalizatio… │                   │            │                   │
├─────────────────────┼───────────────────┼────────────┼───────────────────┤
│ activation_80       │ (None, 8, 8, 448) │          0 │ batch_normalizat… │
│ (Activation)        │                   │            │                   │
├─────────────────────┼───────────────────┼────────────┼───────────────────┤
│ conv2d_77 (Conv2D)  │ (None, 8, 8, 384) │    491,520 │ mixed8[0][0]      │
├─────────────────────┼───────────────────┼────────────┼───────────────────┤
│ conv2d_81 (Conv2D)  │ (None, 8, 8, 384) │  1,548,288 │ activation_80[0]… │
├─────────────────────┼───────────────────┼────────────┼───────────────────┤
│ batch_normalizatio… │ (None, 8, 8, 384) │      1,152 │ conv2d_77[0][0]   │
│ (BatchNormalizatio… │                   │            │                   │
├─────────────────────┼───────────────────┼────────────┼───────────────────┤
│ batch_normalizatio… │ (None, 8, 8, 384) │      1,152 │ conv2d_81[0][0]   │
│ (BatchNormalizatio… │                   │            │                   │
├─────────────────────┼───────────────────┼────────────┼───────────────────┤
│ activation_77       │ (None, 8, 8, 384) │          0 │ batch_normalizat… │
│ (Activation)        │                   │            │                   │
├─────────────────────┼───────────────────┼────────────┼───────────────────┤
│ activation_81       │ (None, 8, 8, 384) │          0 │ batch_normalizat… │
│ (Activation)        │                   │            │                   │
├─────────────────────┼───────────────────┼────────────┼───────────────────┤
│ conv2d_78 (Conv2D)  │ (None, 8, 8, 384) │    442,368 │ activation_77[0]… │
├─────────────────────┼───────────────────┼────────────┼───────────────────┤
│ conv2d_79 (Conv2D)  │ (None, 8, 8, 384) │    442,368 │ activation_77[0]… │
├─────────────────────┼───────────────────┼────────────┼───────────────────┤
│ conv2d_82 (Conv2D)  │ (None, 8, 8, 384) │    442,368 │ activation_81[0]… │
├─────────────────────┼───────────────────┼────────────┼───────────────────┤
│ conv2d_83 (Conv2D)  │ (None, 8, 8, 384) │    442,368 │ activation_81[0]… │
├─────────────────────┼───────────────────┼────────────┼───────────────────┤
│ average_pooling2d_7 │ (None, 8, 8,      │          0 │ mixed8[0][0]      │
│ (AveragePooling2D)  │ 1280)             │            │                   │
├─────────────────────┼───────────────────┼────────────┼───────────────────┤
│ conv2d_76 (Conv2D)  │ (None, 8, 8, 320) │    409,600 │ mixed8[0][0]      │
├─────────────────────┼───────────────────┼────────────┼───────────────────┤
│ batch_normalizatio… │ (None, 8, 8, 384) │      1,152 │ conv2d_78[0][0]   │
│ (BatchNormalizatio… │                   │            │                   │
├─────────────────────┼───────────────────┼────────────┼───────────────────┤
│ batch_normalizatio… │ (None, 8, 8, 384) │      1,152 │ conv2d_79[0][0]   │
│ (BatchNormalizatio… │                   │            │                   │
├─────────────────────┼───────────────────┼────────────┼───────────────────┤
│ batch_normalizatio… │ (None, 8, 8, 384) │      1,152 │ conv2d_82[0][0]   │
│ (BatchNormalizatio… │                   │            │                   │
├─────────────────────┼───────────────────┼────────────┼───────────────────┤
│ batch_normalizatio… │ (None, 8, 8, 384) │      1,152 │ conv2d_83[0][0]   │
│ (BatchNormalizatio… │                   │            │                   │
├─────────────────────┼───────────────────┼────────────┼───────────────────┤
│ conv2d_84 (Conv2D)  │ (None, 8, 8, 192) │    245,760 │ average_pooling2… │
├─────────────────────┼───────────────────┼────────────┼───────────────────┤
│ batch_normalizatio… │ (None, 8, 8, 320) │        960 │ conv2d_76[0][0]   │
│ (BatchNormalizatio… │                   │            │                   │
├─────────────────────┼───────────────────┼────────────┼───────────────────┤
│ activation_78       │ (None, 8, 8, 384) │          0 │ batch_normalizat… │
│ (Activation)        │                   │            │                   │
├─────────────────────┼───────────────────┼────────────┼───────────────────┤
│ activation_79       │ (None, 8, 8, 384) │          0 │ batch_normalizat… │
│ (Activation)        │                   │            │                   │
├─────────────────────┼───────────────────┼────────────┼───────────────────┤
│ activation_82       │ (None, 8, 8, 384) │          0 │ batch_normalizat… │
│ (Activation)        │                   │            │                   │
├─────────────────────┼───────────────────┼────────────┼───────────────────┤
│ activation_83       │ (None, 8, 8, 384) │          0 │ batch_normalizat… │
│ (Activation)        │                   │            │                   │
├─────────────────────┼───────────────────┼────────────┼───────────────────┤
│ batch_normalizatio… │ (None, 8, 8, 192) │        576 │ conv2d_84[0][0]   │
│ (BatchNormalizatio… │                   │            │                   │
├─────────────────────┼───────────────────┼────────────┼───────────────────┤
│ activation_76       │ (None, 8, 8, 320) │          0 │ batch_normalizat… │
│ (Activation)        │                   │            │                   │
├─────────────────────┼───────────────────┼────────────┼───────────────────┤
│ mixed9_0            │ (None, 8, 8, 768) │          0 │ activation_78[0]… │
│ (Concatenate)       │                   │            │ activation_79[0]… │
├─────────────────────┼───────────────────┼────────────┼───────────────────┤
│ concatenate         │ (None, 8, 8, 768) │          0 │ activation_82[0]… │
│ (Concatenate)       │                   │            │ activation_83[0]… │
├─────────────────────┼───────────────────┼────────────┼───────────────────┤
│ activation_84       │ (None, 8, 8, 192) │          0 │ batch_normalizat… │
│ (Activation)        │                   │            │                   │
├─────────────────────┼───────────────────┼────────────┼───────────────────┤
│ mixed9              │ (None, 8, 8,      │          0 │ activation_76[0]… │
│ (Concatenate)       │ 2048)             │            │ mixed9_0[0][0],   │
│                     │                   │            │ concatenate[0][0… │
│                     │                   │            │ activation_84[0]… │
├─────────────────────┼───────────────────┼────────────┼───────────────────┤
│ conv2d_89 (Conv2D)  │ (None, 8, 8, 448) │    917,504 │ mixed9[0][0]      │
├─────────────────────┼───────────────────┼────────────┼───────────────────┤
│ batch_normalizatio… │ (None, 8, 8, 448) │      1,344 │ conv2d_89[0][0]   │
│ (BatchNormalizatio… │                   │            │                   │
├─────────────────────┼───────────────────┼────────────┼───────────────────┤
│ activation_89       │ (None, 8, 8, 448) │          0 │ batch_normalizat… │
│ (Activation)        │                   │            │                   │
├─────────────────────┼───────────────────┼────────────┼───────────────────┤
│ conv2d_86 (Conv2D)  │ (None, 8, 8, 384) │    786,432 │ mixed9[0][0]      │
├─────────────────────┼───────────────────┼────────────┼───────────────────┤
│ conv2d_90 (Conv2D)  │ (None, 8, 8, 384) │  1,548,288 │ activation_89[0]… │
├─────────────────────┼───────────────────┼────────────┼───────────────────┤
│ batch_normalizatio… │ (None, 8, 8, 384) │      1,152 │ conv2d_86[0][0]   │
│ (BatchNormalizatio… │                   │            │                   │
├─────────────────────┼───────────────────┼────────────┼───────────────────┤
│ batch_normalizatio… │ (None, 8, 8, 384) │      1,152 │ conv2d_90[0][0]   │
│ (BatchNormalizatio… │                   │            │                   │
├─────────────────────┼───────────────────┼────────────┼───────────────────┤
│ activation_86       │ (None, 8, 8, 384) │          0 │ batch_normalizat… │
│ (Activation)        │                   │            │                   │
├─────────────────────┼───────────────────┼────────────┼───────────────────┤
│ activation_90       │ (None, 8, 8, 384) │          0 │ batch_normalizat… │
│ (Activation)        │                   │            │                   │
├─────────────────────┼───────────────────┼────────────┼───────────────────┤
│ conv2d_87 (Conv2D)  │ (None, 8, 8, 384) │    442,368 │ activation_86[0]… │
├─────────────────────┼───────────────────┼────────────┼───────────────────┤
│ conv2d_88 (Conv2D)  │ (None, 8, 8, 384) │    442,368 │ activation_86[0]… │
├─────────────────────┼───────────────────┼────────────┼───────────────────┤
│ conv2d_91 (Conv2D)  │ (None, 8, 8, 384) │    442,368 │ activation_90[0]… │
├─────────────────────┼───────────────────┼────────────┼───────────────────┤
│ conv2d_92 (Conv2D)  │ (None, 8, 8, 384) │    442,368 │ activation_90[0]… │
├─────────────────────┼───────────────────┼────────────┼───────────────────┤
│ average_pooling2d_8 │ (None, 8, 8,      │          0 │ mixed9[0][0]      │
│ (AveragePooling2D)  │ 2048)             │            │                   │
├─────────────────────┼───────────────────┼────────────┼───────────────────┤
│ conv2d_85 (Conv2D)  │ (None, 8, 8, 320) │    655,360 │ mixed9[0][0]      │
├─────────────────────┼───────────────────┼────────────┼───────────────────┤
│ batch_normalizatio… │ (None, 8, 8, 384) │      1,152 │ conv2d_87[0][0]   │
│ (BatchNormalizatio… │                   │            │                   │
├─────────────────────┼───────────────────┼────────────┼───────────────────┤
│ batch_normalizatio… │ (None, 8, 8, 384) │      1,152 │ conv2d_88[0][0]   │
│ (BatchNormalizatio… │                   │            │                   │
├─────────────────────┼───────────────────┼────────────┼───────────────────┤
│ batch_normalizatio… │ (None, 8, 8, 384) │      1,152 │ conv2d_91[0][0]   │
│ (BatchNormalizatio… │                   │            │                   │
├─────────────────────┼───────────────────┼────────────┼───────────────────┤
│ batch_normalizatio… │ (None, 8, 8, 384) │      1,152 │ conv2d_92[0][0]   │
│ (BatchNormalizatio… │                   │            │                   │
├─────────────────────┼───────────────────┼────────────┼───────────────────┤
│ conv2d_93 (Conv2D)  │ (None, 8, 8, 192) │    393,216 │ average_pooling2… │
├─────────────────────┼───────────────────┼────────────┼───────────────────┤
│ batch_normalizatio… │ (None, 8, 8, 320) │        960 │ conv2d_85[0][0]   │
│ (BatchNormalizatio… │                   │            │                   │
├─────────────────────┼───────────────────┼────────────┼───────────────────┤
│ activation_87       │ (None, 8, 8, 384) │          0 │ batch_normalizat… │
│ (Activation)        │                   │            │                   │
├─────────────────────┼───────────────────┼────────────┼───────────────────┤
│ activation_88       │ (None, 8, 8, 384) │          0 │ batch_normalizat… │
│ (Activation)        │                   │            │                   │
├─────────────────────┼───────────────────┼────────────┼───────────────────┤
│ activation_91       │ (None, 8, 8, 384) │          0 │ batch_normalizat… │
│ (Activation)        │                   │            │                   │
├─────────────────────┼───────────────────┼────────────┼───────────────────┤
│ activation_92       │ (None, 8, 8, 384) │          0 │ batch_normalizat… │
│ (Activation)        │                   │            │                   │
├─────────────────────┼───────────────────┼────────────┼───────────────────┤
│ batch_normalizatio… │ (None, 8, 8, 192) │        576 │ conv2d_93[0][0]   │
│ (BatchNormalizatio… │                   │            │                   │
├─────────────────────┼───────────────────┼────────────┼───────────────────┤
│ activation_85       │ (None, 8, 8, 320) │          0 │ batch_normalizat… │
│ (Activation)        │                   │            │                   │
├─────────────────────┼───────────────────┼────────────┼───────────────────┤
│ mixed9_1            │ (None, 8, 8, 768) │          0 │ activation_87[0]… │
│ (Concatenate)       │                   │            │ activation_88[0]… │
├─────────────────────┼───────────────────┼────────────┼───────────────────┤
│ concatenate_1       │ (None, 8, 8, 768) │          0 │ activation_91[0]… │
│ (Concatenate)       │                   │            │ activation_92[0]… │
├─────────────────────┼───────────────────┼────────────┼───────────────────┤
│ activation_93       │ (None, 8, 8, 192) │          0 │ batch_normalizat… │
│ (Activation)        │                   │            │                   │
├─────────────────────┼───────────────────┼────────────┼───────────────────┤
│ mixed10             │ (None, 8, 8,      │          0 │ activation_85[0]… │
│ (Concatenate)       │ 2048)             │            │ mixed9_1[0][0],   │
│                     │                   │            │ concatenate_1[0]… │
│                     │                   │            │ activation_93[0]… │
├─────────────────────┼───────────────────┼────────────┼───────────────────┤
│ global_average_poo… │ (None, 2048)      │          0 │ mixed10[0][0]     │
│ (GlobalAveragePool… │                   │            │                   │
├─────────────────────┼───────────────────┼────────────┼───────────────────┤
│ PREDICTIONS (Dense) │ (None, 60)        │    122,940 │ global_average_p… │
└─────────────────────┴───────────────────┴────────────┴───────────────────┘
 Total params: 22,171,606 (84.58 MB)
 Trainable params: 122,940 (480.23 KB)
 Non-trainable params: 21,802,784 (83.17 MB)
 Optimizer params: 245,882 (960.48 KB)
[1m1/1[0m [32m━━━━━━━━━━━━━━━━━━━━[0m[37m[0m [1m0s[0m 8s/step[1m1/1[0m [32m━━━━━━━━━━━━━━━━━━━━[0m[37m[0m [1m8s[0m 8s/step
